…
    "optimum=Adam(lr=0.005)\n",
    "detection.compile(optimizer=optimum,loss='categorical_crossentropy',metrics=['accuracy'])"
   ]
  },
  {
   "cell_type": "code",
   "execution_count": 20,
   "metadata": {},
   "outputs": [
    {
     "name": "stdout",
     "output_type": "stream",
     "text": [
      "Model: \"sequential_3\"\n",
      "_________________________________________________________________\n",
      "Layer (type)                 Output Shape              Param #   \n",
      "=================================================================\n",
      "conv2d_12 (Conv2D)           (None, 48, 48, 64)        1792      \n",
      "_________________________________________________________________\n",
      "batch_normalization_18 (Batc (None, 48, 48, 64)        256       \n",
      "_________________________________________________________________\n",
      "activation_18 (Activation)   (None, 48, 48, 64)        0         \n",
      "_________________________________________________________________\n",
      "max_pooling2d_12 (MaxPooling (None, 24, 24, 64)        0         \n",
      "_________________________________________________________________\n",
      "dropout_18 (Dropout)         (None, 24, 24, 64)        0         \n",
      "_________________________________________________________________\n",
      "conv2d_13 (Conv2D)           (None, 24, 24, 128)       204928    \n",
      "_________________________________________________________________\n",
      "batch_normalization_19 (Batc (None, 24, 24, 128)       512       \n",
      "_________________________________________________________________\n",
      "activation_19 (Activation)   (None, 24, 24, 128)       0         \n",
      "_________________________________________________________________\n",
      "max_pooling2d_13 (MaxPooling (None, 12, 12, 128)       0         \n",
      "_________________________________________________________________\n",
      "dropout_19 (Dropout)         (None, 12, 12, 128)       0         \n",
      "_________________________________________________________________\n",
      "conv2d_14 (Conv2D)           (None, 12, 12, 512)       590336    \n",
      "_________________________________________________________________\n",
      "batch_normalization_20 (Batc (None, 12, 12, 512)       2048      \n",
      "_________________________________________________________________\n",
      "activation_20 (Activation)   (None, 12, 12, 512)       0         \n",
      "_________________________________________________________________\n",
      "max_pooling2d_14 (MaxPooling (None, 6, 6, 512)         0         \n",
      "_________________________________________________________________\n",
      "dropout_20 (Dropout)         (None, 6, 6, 512)         0         \n",
      "_________________________________________________________________\n",
      "conv2d_15 (Conv2D)           (None, 6, 6, 1024)        4719616   \n",
      "_________________________________________________________________\n",
      "batch_normalization_21 (Batc (None, 6, 6, 1024)        4096      \n",
      "_________________________________________________________________\n",
      "activation_21 (Activation)   (None, 6, 6, 1024)        0         \n",
      "_________________________________________________________________\n",
      "max_pooling2d_15 (MaxPooling (None, 3, 3, 1024)        0         \n",
      "_________________________________________________________________\n",
      "dropout_21 (Dropout)         (None, 3, 3, 1024)        0         \n",
      "_________________________________________________________________\n",
      "flatten_3 (Flatten)          (None, 9216)              0         \n",
      "_________________________________________________________________\n",
      "dense_9 (Dense)              (None, 256)               2359552   \n",
      "_________________________________________________________________\n",
      "batch_normalization_22 (Batc (None, 256)               1024      \n",
      "_________________________________________________________________\n",
      "activation_22 (Activation)   (None, 256)               0         \n",
      "_________________________________________________________________\n",
      "dropout_22 (Dropout)         (None, 256)               0         \n",
      "_________________________________________________________________\n",
      "dense_10 (Dense)             (None, 512)               131584    \n",
      "_________________________________________________________________\n",
      "batch_normalization_23 (Batc (None, 512)               2048      \n",
      "_________________________________________________________________\n",
      "activation_23 (Activation)   (None, 512)               0         \n",
      "_________________________________________________________________\n",
      "dropout_23 (Dropout)         (None, 512)               0         \n",
      "_________________________________________________________________\n",
      "dense_11 (Dense)             (None, 39)                20007     \n",
      "=================================================================\n",
      "Total params: 8,037,799\n",
      "Trainable params: 8,032,807\n",
      "Non-trainable params: 4,992\n",
      "_________________________________________________________________\n"
     ]
    }
   ],
   "source": [
    "detection.summary()"
   ]
  },
  {
   "cell_type": "code",
   "execution_count": null,
…
